…
:"stream","name":"stdout","text":["Model: \"model\"\n","__________________________________________________________________________________________________\n"," Layer (type)                Output Shape                 Param #   Connected to                  \n","==================================================================================================\n"," input_1 (InputLayer)        [(None, 320, 640, 2)]        0         []                            \n","                                                                                                  \n"," conv2d (Conv2D)             (None, 320, 640, 32)         608       ['input_1[0][0]']             \n","                                                                                                  \n"," dropout (Dropout)           (None, 320, 640, 32)         0         ['conv2d[0][0]']              \n","                                                                                                  \n"," conv2d_1 (Conv2D)           (None, 320, 640, 32)         9248      ['dropout[0][0]']             \n","                                                                                                  \n"," max_pooling2d (MaxPooling2  (None, 160, 320, 32)         0         ['conv2d_1[0][0]']            \n"," D)                                                                                               \n","                                                                                                  \n"," conv2d_2 (Conv2D)           (None, 160, 320, 64)         18496     ['max_pooling2d[0][0]']       \n","                                                                                                  \n"," dropout_1 (Dropout)         (None, 160, 320, 64)         0         ['conv2d_2[0][0]']            \n","                                                                                                  \n"," conv2d_3 (Conv2D)           (None, 160, 320, 64)         36928     ['dropout_1[0][0]']           \n","                                                                                                  \n"," max_pooling2d_1 (MaxPoolin  (None, 80, 160, 64)          0         ['conv2d_3[0][0]']            \n"," g2D)                                                                                             \n","                                                                                                  \n"," conv2d_4 (Conv2D)           (None, 80, 160, 128)         73856     ['max_pooling2d_1[0][0]']     \n","                                                                                                  \n"," dropout_2 (Dropout)         (None, 80, 160, 128)         0         ['conv2d_4[0][0]']            \n","                                                                                                  \n"," conv2d_5 (Conv2D)           (None, 80, 160, 128)         147584    ['dropout_2[0][0]']           \n","                                                                                                  \n"," max_pooling2d_2 (MaxPoolin  (None, 40, 80, 128)          0         ['conv2d_5[0][0]']            \n"," g2D)                                                                                             \n","                                                                                                  \n"," conv2d_6 (Conv2D)           (None, 40, 80, 256)          295168    ['max_pooling2d_2[0][0]']     \n","                                                                                                  \n"," dropout_3 (Dropout)         (None, 40, 80, 256)          0         ['conv2d_6[0][0]']            \n","                                                                                                  \n"," conv2d_7 (Conv2D)           (None, 40, 80, 256)          590080    ['dropout_3[0][0]']           \n","                                                                                                  \n"," max_pooling2d_3 (MaxPoolin  (None, 20, 40, 256)          0         ['conv2d_7[0][0]']            \n"," g2D)                                                                                             \n","                                                                                                  \n"," conv2d_8 (Conv2D)           (None, 20, 40, 512)          1180160   ['max_pooling2d_3[0][0]']     \n","                                                                                                  \n"," dropout_4 (Dropout)         (None, 20, 40, 512)          0         ['conv2d_8[0][0]']            \n","                                                                                                  \n"," conv2d_9 (Conv2D)           (None, 20, 40, 512)          2359808   ['dropout_4[0][0]']           \n","                                                                                                  \n"," up_sampling2d (UpSampling2  (None, 40, 80, 512)          0         ['conv2d_9[0][0]']            \n"," D)                                                                                               \n","                                                                                                  \n"," concatenate (Concatenate)   (None, 40, 80, 768)          0         ['up_sampling2d[0][0]',       \n","                                                                     'conv2d_7[0][0]']            \n","                                                                                                  \n"," conv2d_10 (Conv2D)          (None, 40, 80, 256)          1769728   ['concatenate[0][0]']         \n","                                                                                                  \n"," dropout_5 (Dropout)         (None, 40, 80, 256)          0         ['conv2d_10[0][0]']           \n","                                                                                                  \n"," conv2d_11 (Conv2D)          (None, 40, 80, 256)          590080    ['dropout_5[0][0]']           \n","                                                                                                  \n"," up_sampling2d_1 (UpSamplin  (None, 80, 160, 256)         0         ['conv2d_11[0][0]']           \n"," g2D)                                                                                             \n","                                                                                                  \n"," concatenate_1 (Concatenate  (None, 80, 160, 384)         0         ['up_sampling2d_1[0][0]',     \n"," )                                                                   'conv2d_5[0][0]']            \n","                                                                                                  \n"," conv2d_12 (Conv2D)          (None, 80, 160, 128)         442496    ['concatenate_1[0][0]']       \n","                                                                                                  \n"," dropout_6 (Dropout)         (None, 80, 160, 128)         0         ['conv2d_12[0][0]']           \n","                                                                                                  \n"," conv2d_13 (Conv2D)          (None, 80, 160, 128)         147584    ['dropout_6[0][0]']           \n","                                                                                                  \n"," up_sampling2d_2 (UpSamplin  (None, 160, 320, 128)        0         ['conv2d_13[0][0]']           \n"," g2D)                                                                                             \n","                                                                                                  \n"," concatenate_2 (Concatenate  (None, 160, 320, 192)        0         ['up_sampling2d_2[0][0]',     \n"," )                                                                   'conv2d_3[0][0]']            \n","                                                                                                  \n"," conv2d_14 (Conv2D)          (None, 160, 320, 64)         110656    ['concatenate_2[0][0]']       \n","                                                                                                  \n"," dropout_7 (Dropout)         (None, 160, 320, 64)         0         ['conv2d_14[0][0]']           \n","                                                                                                  \n"," conv2d_15 (Conv2D)          (None, 160, 320, 64)         36928     ['dropout_7[0][0]']           \n","                                                                                                  \n"," up_sampling2d_3 (UpSamplin  (None, 320, 640, 64)         0         ['conv2d_15[0][0]']           \n"," g2D)                                                                                             \n","                                                                                                  \n"," concatenate_3 (Concatenate  (None, 320, 640, 96)         0         ['up_sampling2d_3[0][0]',     \n"," )                                                                   'conv2d_1[0][0]']            \n","                                                                                                  \n"," conv2d_16 (Conv2D)          (None, 320, 640, 32)         27680     ['concatenate_3[0][0]']       \n","                                                                                                  \n"," dropout_8 (Dropout)         (None, 320, 640, 32)         0         ['conv2d_16[0][0]']           \n","                                                                                                  \n"," conv2d_17 (Conv2D)          (None, 320, 640, 32)         9248      ['dropout_8[0][0]']           \n","                                                                                                  \n"," dropout_9 (Dropout)         (None, 320, 640, 32)         0         ['conv2d_17[0][0]']           \n","                                                                                                  \n"," conv2d_18 (Conv2D)          (None, 320, 640, 1)          33        ['dropout_9[0][0]']           \n","                                                                                                  \n","==================================================================================================\n","Total params: 7846369 (29.93 MB)\n","Trainable params: 7846369 (29.93 MB)\n","Non-trainable params: 0 (0.00 Byte)\n","_________________________________
…
